models/lapped_transform_colored.pth (torch, 2481 bytes, 1 tensors)

conv.weight f4 [1, 1, 16, 16]
000000 10 64 b5 3b 62 d2 d8 bc 5e cb ec 3c dc 7f d7 bb
       0.00553561 -0.026467506 0.028905567 -0.0065765213
000010 25 7f 6e bd fc f5 c1 bc f2 13 9b bc 5d e2 50 3d
       -0.058226723 -0.023676865 -0.01893041 0.050997127
000020 05 02 e8 bb 37 85 05 3d 69 7d 58 bd de a0 ae 3c
       -0.007080319 0.032597747 -0.052853975 0.021316942
000030 b7 b2 39 3d 52 01 55 bc ee ba 4e bd 46 fb 23 3d
       0.04533645 -0.013000803 -0.05047124 0.040034555
000040 43 8c e3 3b 97 17 47 3d 3f 48 6c 3d cf a0 18 3d
       0.0069442107 0.04860648 0.057686087 0.037262734
000050 cc c8 e6 bb 66 f0 76 bd f8 13 23 3d d5 2b 06 3d
       -0.00704298 -0.060287856 0.039813966 0.032756645
000060 41 2a 9d 3c c8 4e e4 3b 4c 9b 59 3d 0a ff 8b 3c
       0.019185187 0.0069673993 0.05312662 0.017089386
000070 2b c2 0c bc aa f8 33 bd e9 e7 03 3d 13 45 0e 3d
       -0.008591215 -0.043938316 0.03220359 0.034733843
000080 b9 07 4c 3d a9 0f d9 3b 8b 86 31 3d 89 e3 48 bd
       0.049812052 0.0066241813 0.0433412 -0.04904512
000090 27 b6 49 3b dc 4e c3 bb bb eb 61 bd 40 ba 08 3d
       0.0030778737 -0.0059603285 -0.05515645 0.033380747
0000a0 4f 32 b4 bc fa 3b 20 3d 3f 38 40 3d 75 6b 7a 3c
       -0.021996645 0.039119698 0.04692864 0.015284409
0000b0 06 f2 6e 3d f7 e1 63 3c 91 66 b2 bb 41 84 72 3d
       0.05833628 0.013908855 -0.005444356 0.05920816
0000c0 9d 19 2c 3d 5c 10 f1 3c 19 90 6f 3d 6a b0 56 3d
       0.042016614 0.029426746 0.05848703 0.052414335
0000d0 24 20 dd bc a9 da b7 3c 65 20 81 3c 7a 0e 03 bc
       -0.026992865 0.022443132 0.015762517 -0.007999057
0000e0 95 fb 75 3d 8d 5f 37 bd b7 f7 15 3d ad cc 01 3d
       0.06005438 -0.04476886 0.036613192 0.031689335
0000f0 78 5c 3c 3d 4d 2d 58 bc ef 07 c3 bb 7f 3a 13 3d
       0.045986623 -0.013194394 -0.0059518735 0.035944458
000100 7e a4 39 bd cd 28 9e 3b 04 dd 4b bd 80 e3 1d 3c
       -0.045322888 0.004826641 -0.049771324 0.00963676
000110 e4 b0 dd 3c 01 da d8 bc fe 91 5c bd f9 9c 82 3c
       0.027061887 -0.02647114 -0.053850166 0.015943991
000120 c5 6f f4 bc 9f c2 e2 bc 11 84 26 bd dc c3 44 bd
       -0.029838452 -0.027680693 -0.040653292 -0.04803835
000130 1a b9 96 3c 17 57 63 bd f6 2d 0a 3c e2 3c 37 bd
       0.01839881 -0.055502977 0.0084338095 -0.044735797
000140 ac c4 70 bc ae c1 bc bb 48 63 df bb 99 b3 ac bc
       -0.014695328 -0.005760393 -0.006817255 -0.021081733
000150 c7 d3 42 3d 4a ba 23 bd 12 e0 47 3d 80 b2 5b 3d
       0.047565248 -0.03997258 0.048797674 0.053637028
000160 43 28 0d bd e6 c6 03 bd 1d 4c 69 bd ef 23 06 bd
       -0.034462225 -0.032172106 -0.056957353 -0.032749113
000170 7a 92 2e bd fd e2 8c 3c 6e 08 2a bc 4a e3 70 3d
       -0.04262016 0.01719808 -0.010377986 0.05881051
000180 24 a1 20 bd 6d de 08 ba de 07 12 3d 80 ee 1d bd
       -0.039216176 -0.00052211323 0.035652034 -0.03855753
000190 a4 3e 11 bd 31 00 c6 bb 80 c2 81 3d 1b 6a 3b bc
       -0.03546013 -0.0060425033 0.06335926 -0.011438872
0001a0 00 4e de 3c 9e a4 80 bc c2 c6 5d 3b 3f 79 9c bc
       0.027136803 -0.015703496 0.0033840393 -0.019100783
0001b0 6d b4 7d 3d c2 6b 6c 3d 42 31 50 3c 98 78 33 3d
       0.061939646 0.057719953 0.0127070565 0.04381618
0001c0 2f c0 67 bd b2 0b 33 3d 49 44 dd bc 03 5c 39 bd
       -0.056579765 0.043712325 -0.0270101 -0.045253765
0001d0 99 14 b2 3b 6b 1a e1 3c d1 b5 3d bd 6c fe 62 bd
       0.0054345843 0.027478417 -0.04631597 -0.055418417
0001e0 dd 96 49 bd 00 ae 99 3c 2d 07 33 bd ea 33 a4 3a
       -0.04921614 0.018759727 -0.043708015 0.0012527679
0001f0 1d 41 31 3d 81 1f 46 3d 31 ee 29 3d 65 1c 83 3c
       0.043274987 0.04836989 0.041486923 0.01600475
000200 9f 54 13 bd 62 33 72 bd a6 bb f4 3c 44 2e 11 bc
       -0.035969373 -0.059131034 0.029874634 -0.008861128
000210 40 ed 6c bd 6f 2e 34 3c a0 e3 2e 3d 75 fc 17 3d
       -0.057843447 0.010997399 0.04269755 0.037105996
000220 a8 6e b8 bc e8 26 22 bd 85 17 3a 3d cd 00 3a bd
       -0.022513703 -0.039587885 0.045432586 -0.04541092
000230 89 d0 50 bd 26 3a 78 bd e0 2e 8b bc 1d 3c cf 3c
       -0.050980125 -0.06060233 -0.016990125 0.025297219
000240 a8 bd 8e 3c e6 ff 5e bd 30 1d 89 bc 36 7f 32 bb
       0.01742442 -0.054443263 -0.01673755 -0.0027236468
000250 4a ca 8c bc 5a 75 c0 3c ae bd 06 3c 2b 14 85 3d
       -0.017186303 0.023493458 0.008223934 0.06497987
000260 40 05 59 3d 18 64 55 3d 30 8e 82 3d 3c 60 19 bd
       0.052983522 0.05209741 0.06374776 -0.037445292
000270 ef 04 2e 3c 00 e7 58 bd 7c f0 cc 3c 2a 15 40 bd
       0.010621293 -0.052954674 0.025017016 -0.046895184
000280 fb 90 97 bc 33 69 48 3d 4c 1a 13 bd cb 10 46 bd
       -0.01850175 0.04892845 -0.03591375 -0.04835586
000290 f4 52 0a 3d f6 5f 02 bc f2 03 e3 bc 2d b7 fa 3c
       0.033770517 -0.007957449 -0.027711842 0.030604923
0002a0 88 25 71 3d 57 eb c0 3c 27 13 56 bd a3 00 3f 3d
       0.058873683 0.023549719 -0.05226436 0.046631467
0002b0 2e e9 ea bc 6c c4 71 3d 2b 21 51 bd 9c 80 4a bd
       -0.028675642 0.059025213 -0.051057022 -0.049439058
0002c0 c1 d4 56 bd c5 b2 06 3d 3f 4c 10 3d f6 24 74 3d
       -0.05244899 0.03288533 0.035228964 0.05960556
0002d0 30 e6 34 bd bf ed d8 3c c6 a9 82 3d 78 2e 50 3d
       -0.044164836 0.026480554 0.06380038 0.050825566
0002e0 a8 90 49 bd b0 2e 66 3d e3 3e 07 bc 77 35 dd bc
       -0.04921022 0.05619687 -0.008254739 -0.027003033
0002f0 a8 7d 3d bd f2 1a 58 3b d7 cb 75 3d 3b 71 13 bd
       -0.046262413 0.0032975045 0.06000885 -0.035996657
000300 68 34 45 3d 40 f7 93 3c 20 e8 84 3c 6e 32 4b 3b
       0.04814568 0.018062234 0.016223967 0.00310054
000310 0a ee 85 3a a9 0f d4 bc 04 5a 74 bd e1 04 96 3c
       0.0010218036 -0.025886374 -0.059656158 0.018312873
000320 7c 9d 06 3d fd 51 0e bc 19 ef 00 3d 98 64 33 3d
       0.032865033 -0.00868654 0.03147802 0.043797106
000330 79 ac 6e bd 3d f3 57 bd 4d 29 5d 3d ad 14 38 3c
       -0.05826995 -0.052722204 0.053994466 0.011235398
000340 f3 7a 5e bd 42 8e a0 3c d6 69 aa bc 11 67 c5 bc
       -0.054316472 0.019599084 -0.02080242 -0.024096997
000350 bc 3f da bc 24 51 a4 bc 0d 7e 14 bd 3e df 05 bd
       -0.026641719 -0.020058222 -0.036253024 -0.032683603
000360 d4 71 16 3d 28 f0 69 3c 09 ab 02 3d 38 f7 a1 39
       0.03672965 0.014278449 0.031901393 0.00030892505
000370 d0 e8 0c 3b b6 38 5b 3d 71 db 47 bd 93 a7 6e 3d
       0.0021501072 0.05352088 -0.04879326 0.05826528
000380 ea 57 4d 3d 54 b0 46 bd 01 36 7f 3d 24 5a 18 bd
       0.05013267 -0.048508003 0.06230736 -0.03719534
000390 ea 87 f7 bb 1d 31 62 3d f1 ca 52 3d 3e b4 87 3c
       -0.007554044 0.05522262 0.05146307 0.016565438
0003a0 b9 5f 64 3d 83 00 1b 3d 51 61 0a bd 03 88 55 3d
       0.05575535 0.037842285 -0.033784214 0.052131664
0003b0 84 78 1a bd 01 d3 4f 3d a7 44 1e 3d 68 1d ae bc
       -0.03771259 0.05073834 0.03863969 -0.021254256
0003c0 41 0f 6a 3d c1 d7 3a 3c ff 95 4f bc 50 e4 45 3d
       0.057143454 0.011403979 -0.012670039 0.04831344
0003d0 ea c9 5d 3d fe e2 b2 ba d1 52 53 bc fe c5 12 bd
       0.05414764 -0.0013647971 -0.012898163 -0.03583335
0003e0 1a 8c 27 bb 55 b0 04 3c 33 08 65 3d a7 4d 29 3d
       -0.0025565685 0.008098681 0.055916023 0.04133382
0003f0 ea 71 69 3d 4e ad 30 3d da 0b 28 3d 73 cc f2 3b
       0.056993403 0.043134026 0.041026928 0.007409626
