models/lapped_transform_gray.pth (torch, 2402 bytes, 1 tensors)

conv.weight f4 [1, 1, 16, 16]
000000 60 a7 d6 3a 15 02 f7 bc 42 1f d4 3c 9e 49 07 bc
       0.0016376786 -0.03015236 0.025893811 -0.008257298
000010 95 fd 6f bd 16 3b c0 bc fc ff 9a bc 8b 02 4f 3d
       -0.058591444 -0.023465674 -0.018920891 0.050539535
000020 3f ed 00 bc 1d 1f fc 3c b1 d2 63 bd 26 98 91 3c
       -0.007869064 0.030776555 -0.055620853 0.017772745
000030 e0 e2 28 3d 16 4a 8f bc fd 5b 63 bd a9 21 0d 3d
       0.04123199 -0.017491382 -0.05550765 0.03445593
000040 b8 0c 2a 3b a5 1d 36 3d 5c 34 5e 3d 49 32 10 3d
       0.0025947522 0.044461865 0.054249153 0.035204206
000050 f3 84 fe bb db 34 77 bd cd d9 21 3d ec 29 03 3d
       -0.0077673136 -0.06035314 0.03951435 0.0320224
000060 33 91 94 3c 34 4e 9c 3b bc 49 4c 3d 36 1c 56 3c
       0.018135643 0.0047700647 0.049875006 0.013068249
000070 cc ae 57 bc 26 54 48 bd 38 ae da 3c a9 5e eb 3c
       -0.013164233 -0.048908375 0.026694402 0.02873166
000080 f2 5f 3d 3d 59 f2 5a 3b 78 49 27 3d 97 61 4d bd
       0.04623408 0.003340861 0.04084155 -0.050141897
000090 81 b6 51 3b 38 e7 aa bb ff 17 5f bd c3 8c 0a 3d
       0.003199965 -0.0052155517 -0.054466244 0.033825647
0000a0 d1 a9 b1 bc 29 a6 1c 3d b7 6d 37 3d a7 82 47 3c
       -0.02168742 0.0382444 0.044782367 0.012177146
0000b0 7e d5 5e 3d 0d 74 1a 3c 9d 34 2d bc d0 30 5b 3d
       0.05440282 0.009427083 -0.010571626 0.053513348
0000c0 f0 28 1f 3d bc 1b da 3c e6 e6 66 3d 83 a5 52 3d
       0.0388574 0.026624553 0.056372546 0.051427376
0000d0 d0 b5 dc bc 3a 10 bd 3c ec 44 88 3c 5a 0c e4 bb
       -0.026942164 0.023079026 0.016634427 -0.0069594802
0000e0 ca 18 7b 3d cc 65 36 bd 32 26 11 3d 23 3a ef 3c
       0.061302938 -0.044530675 0.035436817 0.029202526
0000f0 fe 63 2d 3d 6c c4 90 bc 6f 66 37 bc 7c ce f6 3c
       0.042331688 -0.017671786 -0.011193856 0.030127756
000100 3d ce 36 bd 62 4c c3 3b cb cb 44 bd c3 28 47 3c
       -0.044630278 0.0059600333 -0.048045915 0.012155714
000110 52 df f7 3c 42 3b ba bc 38 8e 4b bd ca 6a a8 3c
       0.030257855 -0.022733334 -0.049696177 0.020558733
000120 74 f5 ca bc ce d0 be bc 69 8d 19 bd 71 8d 3e bd
       -0.024775244 -0.023292925 -0.037488375 -0.046521608
000130 55 fc 93 3c 18 f1 6a bd 03 2d ad 3b 26 c4 47 bd
       0.018064657 -0.05735883 0.005284907 -0.048771046
000140 9c fd 53 bc da e9 69 bb 63 15 8a bb 9a 4d 92 bc
       -0.012938883 -0.0035692365 -0.0042139753 -0.017859269
000150 5a 3e 52 3d c8 e5 11 bd 2a 20 5c 3d 6c da 72 3d
       0.051328994 -0.035619527 0.05374161 0.059290335
000160 2f 7e e7 bc ab 85 d9 bc 99 7d 57 bd 80 a5 f8 bc
       -0.028258411 -0.026552996 -0.052610014 -0.030352354
000170 59 bd 2e bd 9c 1a 77 3c cc b6 64 bc 02 ae 5e 3d
       -0.042661045 0.015082028 -0.013959598 0.054365166
000180 d2 6e 18 bd 2c 63 01 3b d5 d6 1d 3d 0f 99 0f bd
       -0.03721506 0.001974295 0.038534958 -0.035058077
000190 0e 74 00 bd a2 96 a7 ba 53 23 8d 3d db 61 a4 bb
       -0.03136068 -0.0012785981 0.06891503 -0.005016548
0001a0 4a 92 0b 3d 5b 8e 19 bc 24 54 07 3c d4 ba 87 bc
       0.03407506 -0.009372319 0.008259807 -0.016568579
0001b0 b7 b0 7b 3d 52 8c 60 3d 2d 79 09 3c 15 d5 1e 3d
       0.061447825 0.05482132 0.008390707 0.03877743
0001c0 a3 e6 59 bd 5a 02 43 3d 09 bd b9 bc 36 2e 25 bd
       -0.053198468 0.047609664 -0.022673147 -0.040327273
0001d0 5d 2e 33 3c 46 9c 09 3d 32 b3 21 bd 70 16 44 bd
       0.010936347 0.0335963 -0.039477535 -0.04787296
0001e0 ce 02 29 bd 43 39 d6 3c 20 d6 19 bd 1d b5 af 3b
       -0.04126244 0.026150351 -0.03755772 0.0053621666
0001f0 ff 43 36 3d 90 3d 40 3d 64 06 1d 3d 22 4f 44 3c
       0.04449844 0.04693371 0.038336173 0.011981757
000200 a2 b6 f9 bc 0f 0e 5a bd 0a c2 13 3d 48 6e 13 bb
       -0.030482594 -0.053236064 0.036073722 -0.0022496153
000210 e6 46 50 bd ff 62 96 3c 77 c9 4e 3d 2d cd 39 3d
       -0.050848864 0.018357752 0.0504851 0.045361686
000220 98 4a 64 bc 8b eb 00 bd 68 ca 57 3d fa 23 21 bd
       -0.0139338 -0.03147463 0.052683264 -0.03934095
000230 67 e2 3e bd e8 31 6e bd f5 dc 84 bc c3 c2 cc 3c
       -0.046602633 -0.058153063 -0.016218642 0.024995213
000240 85 f2 9b 3c 9a 93 55 bd 70 ff 63 bc 59 23 4a 3a
       0.01903654 -0.052142717 -0.0139158815 0.00077109557
000250 22 c3 55 bc 41 b7 e7 3c b3 66 62 3c ca 35 92 3d
       -0.013047012 0.028285624 0.013818431 0.07139166
000260 0d 4f 75 3d 4a 32 6e 3d 95 b4 8b 3d 5d 1e 0f bd
       0.05988984 0.058153428 0.06821553 -0.034941066
000270 d3 7c 33 3c 81 57 5f bd fc 82 b5 3c 32 c1 4e bd
       0.010955053 -0.05452681 0.022157185 -0.050477214
000280 17 23 8f bc b9 a2 4e 3d bc c8 0a bd b6 42 3b bd
       -0.017472787 0.050448153 -0.03388284 -0.045717917
000290 b6 25 17 3d 44 f5 8e bb a6 42 c1 bc 8c c8 10 3d
       0.0369012 -0.004362734 -0.02359135 0.035347506
0002a0 01 1a 83 3d 8c e8 e2 3c be 66 4b bd 72 16 43 3d
       0.06401444 0.027698778 -0.04965853 0.047628827
0002b0 8d ac ee bc 34 66 6a 3d 2a 28 5c bd 16 de 57 bd
       -0.029135013 0.057226375 -0.05374924 -0.052702032
0002c0 a1 ae 58 bd 90 37 06 3d 3e c3 11 3d b7 1e 78 3d
       -0.052900914 0.032767832 0.035586588 0.060576167
0002d0 4d 16 2f bd 3b 2e e6 3c 54 65 86 3d ea da 58 3d
       -0.042745877 0.028098216 0.065622956 0.052943148
0002e0 2f bb 3f bd ff f2 6a 3d fd 77 0b bc d3 48 e8 bc
       -0.04680937 0.057360645 -0.008512494 -0.028355038
0002f0 2c 91 46 bd 7c a1 54 39 8e 62 66 3d 4d 88 24 bd
       -0.04847829 0.00020278053 0.056246333 -0.04016905
000300 da bc 3d 3d dd 52 87 3c d5 26 78 3c aa 6a 2c 3b
       0.04632268 0.016519004 0.015145977 0.0026308694
000310 0e 6a 75 3a aa 77 d4 bc 40 b5 74 bd d5 3e 94 3c
       0.00093618117 -0.025935967 -0.059743166 0.018096367
000320 60 53 05 3d 08 f5 27 bc d9 7b eb 3c 7d 38 25 3d
       0.032550216 -0.010251291 0.028745579 0.040337075
000330 8c d3 7e bd f4 7d 6a bd ed 95 48 3d 95 a2 c2 3b
       -0.062213466 -0.057249025 0.048971105 0.0059397914
000340 8f 82 66 bd b7 f4 91 3c fe e2 b5 bc 63 3b cc bc
       -0.056276854 0.017816884 -0.022202965 -0.024930662
000350 d5 b6 de bc 64 0d a9 bc a7 aa 17 bd 91 33 0a bd
       -0.02718679 -0.020636268 -0.03702798 -0.033740584
000360 9d a3 10 3d 87 97 3e 3c d3 4a e7 3c 76 0c 83 bb
       0.035312284 0.011632807 0.028233921 -0.003999288
000370 55 76 29 bb 19 cf 45 3d de 9e 5e bd fb 42 57 3d
       -0.0025857885 0.048293207 -0.054350726 0.052554112
000380 36 44 3f 3d f5 91 54 bd ff 31 72 3d 8f b4 23 bd
       0.04669591 -0.051897008 0.05912971 -0.039967116
000390 bf 4f 26 bc 37 67 57 3d 5a 6b 47 3d 75 96 5e 3c
       -0.010150849 0.052588668 0.048686363 0.013585676
0003a0 68 c7 56 3d 78 48 09 3d db 69 1f bd 38 5a 3e 3d
       0.052436262 0.033516377 -0.03891931 0.046472758
0003b0 9c 16 33 bd 46 be 35 3d 5e 79 03 3d 94 98 e3 bc
       -0.043722734 0.044370912 0.032098167 -0.027782716
0003c0 a1 1b 58 3d 74 0d e5 3b 38 2a 8b bc 17 f0 34 3d
       0.052760724 0.006990129 -0.016987905 0.04417428
0003d0 a5 61 4d 3d a4 be af bb 83 61 8a bc 99 77 23 bd
       0.05014195 -0.0053633023 -0.0168922 -0.03990898
0003e0 b6 59 e2 bb be 1d 40 3b 8b ff 4c 3d a2 76 0f 3d
       -0.006907667 0.0029314603 0.050048392 0.035025246
0003f0 b1 58 4e 3d 9f 7d 14 3d 56 74 0b 3d b5 92 07 3a
       0.05037755 0.036252614 0.034046493 0.00051717024
