models/lapped_transform_gray.pth (torch, 2402 bytes, 1 tensors)

conv.weight f4 [1, 1, 16, 16]
0.021023685 0.046485454 -0.05131604 -0.060347512 0.050725702 -0.026434671 0.016751265 0.05272089
0.060454674 0.055873502 -0.03499395 -0.01937049 -0.009309097 -0.033799544 -0.025955891 -0.013360679
0.016252069 0.019956144 -0.063782945 -0.023449676 0.0275726 0.046741568 0.049224544 0.00038911984
0.04564623 -0.04440773 -0.005739621 -0.005477022 -0.014017558 -0.05280542 0.0064485758 -0.040530305
0.009498465 0.040533964 0.055877775 0.04577597 -0.048452526 0.050114878 0.025713544 -0.04923249
0.023058899 -0.037536487 0.027184984 0.012164152 0.027725758 0.064670965 0.01809568 0.060164984
-0.016375234 0.02267824 -0.04005395 0.026042882 -0.027335623 -0.04229209 -0.028334282 -0.012127734
0.031143844 0.004774374 -0.025897918 -0.025205847 -0.036136497 0.06494914 0.04973824 -0.017921546
0.021609917 0.017636055 0.02162136 0.019376257 0.022727847 -0.022946857 -0.0024685992 -0.035855062
-0.00069571263 -0.0040530823 -0.045187354 0.023143232 -0.03995306 -0.049721014 0.03395239 -0.018599527
0.035785653 0.049773876 0.00565219 0.042325493 -0.05006289 0.04206114 -0.027735127 -0.03973358
-0.055171598 0.009153472 0.024128297 -0.04774909 0.023312239 0.0062687504 -0.044066045 -0.035169255
-0.045043893 -0.023839867 0.012643261 -0.02201191 0.020012494 -0.03368215 -0.0111528775 0.038321145
-0.021792147 0.059356976 -0.0033928445 -0.04363307 -0.04361312 -0.0080773225 0.009157326 -0.008755842
0.0129858125 0.02108711 0.020043207 0.02587141 0.003754531 0.033248924 0.0485699 -0.011347106
-0.014783923 0.038824692 0.056013256 0.049590915 0.010593022 0.065926746 0.0035050386 -0.047477476
0.009810983 0.05744033 -0.0516918 -0.030495916 0.044794388 -0.022401271 0.064276524 0.023198063
-0.021706812 0.038981494 0.036667347 0.04302463 0.06157004 -0.02258109 -0.052773707 -0.03799785
0.056069534 -0.026325721 0.047400646 0.048631836 0.029388336 -0.0021602258 0.05579818 0.06615199
0.052393954 0.0066500003 0.04299743 0.019596342 -0.011466211 -0.02336235 -0.024126783 -0.03588088
0.032490913 -0.00031774706 0.050021395 -0.053345077 -0.00024303503 -0.04029354 -0.0049250103 -0.05557071
-0.051628217 -0.048874028 0.064249605 -0.047716893 0.06718838 -0.00015476062 -0.038439672 0.030247765
-0.0032499114 -0.03490845 0.031747807 -0.0030117687 0.054928806 0.051807623 0.018665204 -0.0071742
-0.041896377 0.008910409 -0.05020236 0.044746887 -0.027713086 -0.025588121 -0.038107496 0.028352888
-0.05243414 -0.028830789 0.04455855 -0.06042398 0.023788549 -0.023783997 0.03416708 -0.0064812237
-0.04986267 -0.03284127 -0.053823438 -0.015439767 -0.010598322 -0.020967292 0.023441903 0.004937663
-0.020868097 -0.0010413972 -0.00024869223 0.045817327 -0.06030314 0.045428846 0.058831967 0.038221166
0.05123433 0.0046385173 0.03487097 0.016681954 -0.004910102 0.061601456 -0.018505462 0.010034818
-0.031186054 0.016989715 0.0009641303 0.013945553 0.040394988 0.049127337 0.009775498 0.018559964
0.020604687 0.030519122 0.047387365 -0.008285348 -0.0199223 0.052669846 -0.0010995322 -0.018547837
-0.031375773 -0.01951411 0.023390258 0.008045357 -0.028920991 -0.017743614 0.032341596 0.036204197
-0.044959065 0.053255193 -0.043483 0.05040825 0.04116072 0.008275929 0.05659491 -0.055235535
00000000: dd39 ac3c 8867 3e3d c530 52bd f42e 77bd
00000010: c1c5 4f3d 868d d8bc f339 893c dcf1 573d
00000020: 529f 773d 9ddb 643d d155 0fbd ddae 9ebc
00000030: 2f85 18bc 6471 0abd 73a1 d4bc c0e6 5abc
00000040: 0f23 853c 117b a33c a2a0 82bd 8919 c0bc
00000050: efdf e13c 1674 3f3d ad9f 493d c802 cc39
00000060: 8bf7 3a3d e1e4 35bd 6e13 bcbb 9778 b3bb
00000070: e6a9 65bc 7f4a 58bd 934e d33b 1b03 26bd
00000080: 739f 1b3c f106 263d 18e0 643d 957f 3b3d
00000090: 2876 46bd 4245 4d3d 36a5 d23c 02a8 49bd
000000a0: 04e6 bc3c dcbf 19bd 0bb3 de3c 274c 473c
000000b0: 2121 e33c 3672 843d 643d 943c 8f6f 763d
000000c0: 5b25 86bc b7c7 b93c 9c0f 24bd e257 d53c
000000d0: f5ee dfbc 783a 2dbd 4c1d e8bc 67b3 46bc
000000e0: 6021 ff3c 5a72 9c3b df27 d4bc 7e7c cebc
000000f0: dd03 14bd 0e04 853d 53ba 4b3d 35d0 92bc
00000100: 4807 b13c 7d79 903c 471f b13c f5ba 9e3c
00000110: c02f ba3c 0cfb bbbc 39c8 21bb c2dc 12bd
00000120: 7c60 36ba b8cf 84bb 6016 39bd e096 bd3c
00000130: d2a5 23bd 43a8 4bbd a911 0b3d 095e 98bc
00000140: fa93 123d b1df 4b3d 0236 b93b 7f5d 2d3d
00000150: bf0e 4dbd 4d48 2c3d c734 e3bc aebf 22bd
00000160: 9dfb 61bd 72f8 153c b5a8 c53c 8d94 43bd
00000170: 4ff9 be3c 176a cd3b 997e 34bd a30d 10bd
00000180: f27f 38bd d34b c3bc ae25 4f3c 5252 b4bc
00000190: 3ef1 a33c 4bf6 09bd 8fba 36bc a2f6 1c3d
000001a0: 7285 b2bc 4d20 733d 7c5a 5ebb 97b8 32bd
000001b0: aca3 32bd bf56 04bc 9c08 163c aa74 0fbc
000001c0: 72c2 543c e0be ac3c a731 a43c 47f0 d33c
000001d0: 940e 763b 0630 083d 3bf1 463d 36e9 39bc
000001e0: 4438 72bc a406 1f3d 286e 653d d81f 4b3d
000001f0: 5b8e 2d3c 9a04 873d cab4 653b be77 42bd
00000200: 3fbe 203c 8d46 6b3d c8ba 53bd 92d2 f9bc
00000210: 527a 373d df82 b7bc 69a3 833d dd09 be3c
00000220: 7cd2 b1bc 0fab 1f3d 8030 163d 983a 303d
00000230: de30 7c3d fafb b8bc 3e29 58bd a2a3 1bbd
00000240: 2ba9 653d 0aa9 d7bc 2e27 423d 2d32 473d
00000250: cfbf f03c 9392 0dbb a28c 643d b27a 873d
00000260: 0b9b 563d 3fe8 d93b 131e 303d 8288 a03c
00000270: c6dc 3bbc 6662 bfbc 88a5 c5bc d4f7 12bd
00000280: 3115 053d 4a97 a6b9 3ce3 4c3d 5e80 5abd
00000290: 38d7 7eb9 d70a 25bd fb61 a1bb 1d9e 63bd
000002a0: 1c78 53bd 2230 48bd 4c95 833d ca72 43bd
000002b0: 109a 893d 3d47 22b9 eb72 1dbd 29ca f73c
000002c0: 77fc 54bb 2afc 0ebd fd09 023d 1861 45bb
000002d0: 07fd 603d 3b34 543d c5e7 983c 8d15 ebbb
000002e0: 899b 2bbd f7fc 113c fda0 4dbd 8348 373d
000002f0: 8e06 e3bc 2e9e d1bc 9b16 1cbd 5144 e83c
00000300: 2ec5 56bd 8c2e ecbc 0783 363d 237f 77bd
00000310: 34e0 c23c a8d6 c2bc c8f2 0b3d 7260 d4bb
00000320: cd3c 4cbd 9184 06bd f775 5cbd 14f7 7cbc
00000330: 96a4 2dbc 99c3 abbc 3c09 c03c 1fcc a13b
00000340: 92f3 aabc 7e7f 88ba e862 82b9 f3aa 3b3d
00000350: 6d00 77bd 9913 3a3d caf9 703d cc8d 1c3d
00000360: 17db 513d b4fe 973b ddd4 0e3d 98a8 883c
00000370: ece4 a0bb cf51 7c3d c498 97bc 1469 243c
00000380: e579 ffbc 042e 8b3c b0bd 7c3a e47b 643c
00000390: 3775 253d bf39 493d 6929 203c 110b 983c
000003a0: 29cb a83c 3d03 fa3c 4119 423d 45bf 07bc
000003b0: 1734 a3bc 56bc 573d 2e1e 90ba a2f1 97bc
000003c0: e283 00bd 0edc 9fbc ed9c bf3c acd0 033c
000003d0: b7eb ecbc 0e5b 91bc 9f78 043d da4a 143d
000003e0: ff26 38bd 1e22 5a3d 3b1b 32bd e278 4e3d
000003f0: 2598 283d c397 073c 10d0 673d a83e 62bd
