models/lapped_transform_colored.pth (torch, 2481 bytes, 1 tensors)

conv.weight f4 [1, 1, 16, 16]
0.025499564 0.050734274 -0.047628887 -0.05727372 0.05320166 -0.024655266 0.017720647 0.052624274
0.0592354 0.05383196 -0.03773199 -0.022606522 -0.012819757 -0.03735534 -0.029408967 -0.016606027
0.020945093 0.024439123 -0.059853688 -0.02017367 0.030136077 0.048462223 0.04993405 -0.00019479688
0.043820627 -0.047039665 -0.008973815 -0.009138977 -0.017904444 -0.056700293 0.0026705158 -0.044113837
0.014632938 0.045506913 0.060353965 0.04957065 -0.045507472 0.052038465 0.026407013 -0.050022937
0.020957235 -0.040326063 0.023925964 0.008566155 0.024000095 0.060981173 0.014518724 0.056773182
-0.011504755 0.02738644 -0.035861995 0.029467158 -0.02495307 -0.041205734 -0.028746316 -0.014166185
0.027832134 0.0009506596 -0.03002793 -0.029540962 -0.04055472 0.060569637 0.04541894 -0.022119297
0.026550658 0.022435606 0.02594513 0.02291389 0.025122052 -0.022049282 -0.003309022 -0.038498756
-0.0046151336 -0.008333575 -0.0496335 0.01858893 -0.04459474 -0.05440263 0.029248068 -0.023225736
0.040610716 0.054499097 0.009948648 0.04584266 -0.047762953 0.042703036 -0.029042391 -0.042980023
-0.05968165 0.00443903 0.01942032 -0.052488923 0.018505024 0.0013427841 -0.04912359 -0.0402144
-0.040363252 -0.019227907 0.01689157 -0.018520096 0.022263918 -0.033221982 -0.012809377 0.034621835
-0.02675057 0.05431946 -0.008238603 -0.048390355 -0.048402123 -0.0130269015 0.003988038 -0.013983324
0.018052274 0.026107425 0.024751134 0.029890813 0.0065863575 0.034257576 0.047293514 -0.014942978
-0.01978697 0.03389876 0.051518932 0.04538526 0.0064080223 0.06153633 -0.0012018743 -0.05229411
0.013625916 0.061208557 -0.04828432 -0.027870202 0.046085525 -0.023123583 0.06130065 0.018161602
-0.027937979 0.032914616 0.031034606 0.03769199 0.05629537 -0.028038997 -0.058497876 -0.043797698
0.060985286 -0.021436883 0.052081406 0.05275178 0.032480907 -0.00075879705 0.054958984 0.06290356
0.047641 0.00196406 0.03881288 0.015764423 -0.015239355 -0.027367909 -0.028455539 -0.04029186
0.03683089 0.0040351106 0.054260302 -0.049565155 0.0026865322 -0.038796574 -0.0053912792 -0.058270887
-0.055820182 -0.053154085 0.060321067 -0.05139082 0.063547775 -0.0040184236 -0.04259171 0.026046561
0.0008095351 -0.030773003 0.03588831 0.00084875093 0.05822999 0.054068197 0.019343263 -0.008522592
-0.04485866 0.0057044756 -0.053237896 0.041866135 -0.030624699 -0.028714854 -0.04148886 0.024942867
-0.04900664 -0.025243897 0.0482773 -0.056819286 0.027065942 -0.021210887 0.035556003 -0.006803713
-0.05174972 -0.03510901 -0.056089766 -0.017677885 -0.012932607 -0.023507498 0.020655606 0.002082645
-0.017046122 0.002996947 0.0040002833 0.05008657 -0.056192145 0.04914502 0.061770238 0.039845664
0.051502094 0.004470993 0.034599576 0.016314592 -0.0054340377 0.06086128 -0.01955926 0.008823486
-0.027796613 0.02067053 0.0049045673 0.017974136 0.044359334 0.052811358 0.012869534 0.020600047
0.021494482 0.03105508 0.04780393 -0.007999689 -0.01978433 0.052591525 -0.0015181231 -0.019206747
-0.028376391 -0.016209543 0.026977697 0.011721329 -0.025309939 -0.014343311 0.035266016 0.03826168
-0.043858234 0.054109816 -0.042703353 0.051128592 0.041776344 0.008691872 0.056703474 -0.055401504
00000000: 76e4 d03c bece 4f3d 8216 43bd d997 6abd
00000010: fce9 593d d7f9 c9bc e42a 913c 8d8c 573d
00000020: d2a0 723d e77e 5c3d dc8c 1abd 5031 b9bc
00000030: f509 52bc ea01 19bd 13eb f0bc 5d09 88bc
00000040: 0b95 ab3c 8e34 c83c 2429 75bd 4143 a5bc
00000050: efdf f63c 5380 463d a587 4c3d 6442 4cb9
00000060: 427d 333d aaac 40bd e806 13bc a6bb 15bc
00000070: 57ac 92bc 913e 68bd d203 2f3b b6b0 34bd
00000080: febe 6f3c 7565 3a3d b835 773d 980a 4b3d
00000090: 0b66 3abd 4926 553d 8553 d83c dae4 4cbd
000000a0: 82ae ab3c f12c 25bd 6200 c43c 0f59 0c3c
000000b0: d99b c43c 65c7 793d f1df 6d3c ff8a 683d
000000c0: 717e 3cbc 8759 e03c 07e4 12bd 1c65 f13c
000000d0: 616a ccbc 58c7 28bd 657d ebbc 4919 68bc
000000e0: 3700 e43c b035 793a 22fd f5bc e3ff f1bc
000000f0: b51c 26bd de17 783d 3609 3a3d 8733 b5bc
00000100: c480 d93c e0ca b73c e28a d43c e9b5 bb3c
00000110: c3cc cd3c b2a0 b4bc 2ddc 58bb dfb0 1dbd
00000120: 8c3a 97bb 8c89 08bc 7f4c 4bbd d047 983c
00000130: f9a8 36bd 4bd5 5ebd a599 ef3c e643 bebc
00000140: 6c57 263d 723a 5f3d a7ff 223c 83c5 3b3d
00000150: 16a3 43bd 61e9 2e3d 4fea edbc d20b 30bd
00000160: bf74 74bd 4875 913b 5d17 9f3c a0fe 56bd
00000170: d997 973c 5c00 b03a d135 49bd dbb7 24bd
00000180: f053 25bd d883 9dbc 3160 8a3c 75b7 97bc
00000190: d262 b63c c613 08bd 6cde 51bc a0cf 0d3d
000001a0: 0324 dbbc 157e 5e3d 35fb 06bc f734 46bd
000001b0: 4e41 46bd c96e 55bc 16ae 823b 501a 65bc
000001c0: 5de2 933c 3ddf d53c e4c2 ca3c 94dd f43c
000001d0: 5fd2 d73b ac51 0c3d d8b6 413d 64d3 74bc
000001e0: 4918 a2bc 6dd9 0a3d 8405 533d e5e5 393d
000001f0: 63fa d13b 850d 7c3d 3688 9dba 5932 56bd
00000200: 3c3f 5f3c d3b5 7a3d c7c5 45bd 0d50 e4bc
00000210: 2dc4 3c3d ab6d bdbc 6416 7b3d a4c7 943c
00000220: 30de e4bc 7ad1 063d 493c fe3c eb62 1a3d
00000230: f995 663d 0ab2 e5bc 789b 6fbd 3765 33bd
00000240: b5cb 793d 679c afbc 5053 553d 4012 583d
00000250: b30a 053d 02ea 46ba ac1c 613d 95d3 803d
00000260: 3623 433d 75b7 003b 41fa 1e3d 6424 813c
00000270: 7dae 79bc aa32 e0bc 971b e9bc 1409 25bd
00000280: fddb 163d f638 843b 0d40 5e3d d504 4bbd
00000290: 8810 303b 28e9 1ebd 54a9 b0bb 74ad 6ebd
000002a0: b4a3 64bd 19b8 59bd 3913 773d 2e7f 52bd
000002b0: 5625 823d fbac 83bb a574 2ebd 995f d53c
000002c0: fb36 543a aa17 fcbc 9fff 123d b67e 5e3a
000002d0: 9282 6e3d 9d76 5d3d c375 9e3c 57a2 0bbc
000002e0: b7bd 37bd 9cec ba3b fb0f 5abd d37b 2b3d
000002f0: a6e0 fabc 6a3b ebbc 39f0 29bd fc54 cc3c
00000300: 30bb 48bd 4acc cebc 6bbe 453d 57bb 68bd
00000310: 65b9 dd3c 74c2 adbc 2ca3 113d aef1 debb
00000320: 84f7 53bd 77ce 0fbd 62be 65bd 36d1 90bc
00000330: 49e3 53bc cc92 c0bc f235 a93c fc7c 083b
00000340: 4fa4 8bbc 6d68 443b cf14 833b 9327 4d3d
00000350: bc29 66bd 4a4c 493d ca02 7d3d 3535 233d
00000360: dcf3 523d 6881 923b 49b8 0d3d 2ea6 853c
00000370: 0310 b2bb ad49 793d be3a a0bc 6290 103c
00000380: b9b5 e3bc 3e55 a93c 7eb6 a03b 7f3e 933c
00000390: 22b2 353d b950 583d bdda 523c 6ec1 a83c
000003a0: 3215 b03c 3967 fe3c 0ece 433d 2111 03bc
000003b0: bf12 a2bc 366a 573d c2fb c6ba 7857 9dbc
000003c0: 9b75 e8bc e0c9 84bc 5500 dd3c d10a 403c
000003d0: ca56 cfbc 3500 6bbc 1973 103d 48b8 1c3d
000003e0: b1a4 33bd 41a2 5d3d b6e9 2ebd 376c 513d
000003f0: ac1d 2b3d 5a68 0e3c e741 683d b0ec 62bd
